LeNet_1998.pt (torch, 250174 bytes, 13 tensors)

weight f4 [6, 1, 5, 5]
-0.16908495 0.6023657 0.013146743 -0.04832993 0.0028495984 0.39990878 -0.0044302777 0.3087341
-0.27364135 -0.40237713 0.17638631 0.1378291 0.073945455 0.43787372 0.23831356 0.16086707
-0.14596753 0.0014694298 0.40432638 0.46817365 -0.3391201 -0.44003922 -0.5134055 -0.32645443
0.42522863 -0.2645877 0.0873954 0.30538547 0.54370785 -0.03254342 -0.4235215 0.051596593
0.44513568 0.49699357 -0.097159274 -0.518298 -0.06414204 0.43266284 0.47360677 -0.05013173
-0.56109834 -0.053327624 0.12713808 0.48119366 0.21697988 -0.34685263 -0.5960007 -0.028459223
0.29044893 -0.07152823 -0.08496226 0.21571201 -0.4209919 -1.0851138 0.11203142 0.51034206
-0.20715305 -0.96525836 -0.50411403 0.3299549 0.2609305 -0.9355048 -0.59914476 0.3518688
0.3117942 -0.032948118 -1.0708715 -0.05775618 0.04613493 0.13843882 -0.84280044 -0.117321916
-0.1561305 0.30354068 0.3076658 0.34151474 -0.17047279 0.004275333 0.5032108 0.2811185
-0.5910803 -0.4933172 0.13776483 0.5159167 0.9139743 -0.62303025 -0.2982483 0.16777804
0.69346935 0.5133348 0.00079760276 -0.07605599 0.3315848 0.6075388 0.11248628 -0.23818678
-0.0593028 0.26863098 0.8006141 0.2556455 0.2732207 -0.26326138 -0.36799344 -0.25771016
-0.19372843 0.7874645 0.50747174 0.040047236 -0.22296648 -0.36026287 0.19793831 1.0786818
1.2194848 0.72255516 -0.056762297 -0.37394357 -0.15656629 0.29791823 0.8507419 0.7873283
-0.18288165 -0.33059427 -0.17339312 -0.071490616 0.6150175 -0.16368738 -0.42945123 -0.28803995
-0.2904991 -0.3611761 -0.042903695 -0.16917598 -0.15383552 -0.067356326 0.30091104 0.28970385
1.2813977 1.3115649 1.3263335 0.80441636 0.25625366 0.60261244 0.2290895 0.008398127
0.07966679 -0.19549939 -0.12985948 -0.42762583 -0.37078878 -0.2818115
00000000: 9b24 2dbe a334 1a3f 7065 573c 9bf5 45bd
00000010: 54c0 3a3b d8c0 cc3e dd2b 91bb 6512 9e3e
00000020: b81a 8cbe 6004 cebe 9d9e 343e 1223 0d3e
00000030: b770 973d fc30 e03e 7808 743e 56ba 243e
00000040: 8378 15be e299 c03a de03 cf3e 75b4 ef3e
00000050: 26a1 adbe d24c e1be 8b6e 03bf 0925 a7be
00000060: 91b7 d93e 0a78 87be 5cfc b23d 7c5b 9c3e
00000070: 7030 0b3f 404c 05bd cfd7 d8be f356 533d
00000080: d3e8 e33e f175 fe3e 71fb c6bd 2daf 04bf
00000090: e75c 83bd fc85 dd3e 967c f23e ee56 4dbd
000000a0: 24a4 0fbf 116e 5abd 7c30 023e 045f f63e
000000b0: f92f 5e3e ab96 b1be 8093 18bf 5123 e9bc
000000c0: b9b5 943e 657d 92bd b200 aebd 9ce3 5c3e
000000d0: 408c d7be 02e5 8abf bb70 e53d c7a5 023f
000000e0: ee1f 54be 2c1b 77bf 9e0d 01bf d9ef a83e
000000f0: af98 853e 3e7d 6fbf 8d61 19bf 2628 b43e
00000100: 7da3 9f3e 9bf4 06bd 5112 89bf bf91 6cbd
00000110: fbf7 3c3d e8c2 0d3e c5c1 57bf 7946 f0bd
00000120: ace0 1fbe af69 9b3e 5f86 9d3e 05db ae3e
00000130: 6b90 2ebe 1818 8c3b 6cd2 003f c4ee 8f3e
00000140: 0a51 17bf 1294 fcbe 3912 0d3e 1e13 043f
00000150: 38fa 693f e97e 1fbf 00b4 98be 02ce 2b3e
00000160: 3587 313f e969 033f 3716 513a 3ec3 9bbd
00000170: 7cc5 a93e aa87 1b3f 355f e63d 3ce7 73be
00000180: 7ee7 72bd 008a 893e 0cf5 4c3f f8e3 823e
00000190: 95e3 8b3e 32ca 86be a369 bcbe 96f2 83be
000001a0: bf60 46be 4697 493f abe9 013f 9208 243d
000001b0: 5351 64be 6074 b8be 57b0 4a3e 3f12 8a3f
000001c0: 1418 9c3f 60f9 383f 957f 68bd 8875 bfbe
000001d0: ea52 20be bd88 983e 39ca 593f 598e 493f
000001e0: 5445 3bbe a743 a9be f78d 31be ac69 92bd
000001f0: c971 1d3f aa9d 27be 08e1 dbbe f979 93be
00000200: 4cbc 94be 13ec b8be c9bb 2fbd 783c 2dbe
00000210: 0f87 1dbe 1df2 89bd 0311 9a3e 1054 943e
00000220: d704 a43f 5ce1 a73f 4cc5 a93f 3bee 4d3f
00000230: ae33 833e cf44 1a3f 7096 6a3e 4c98 093c
00000240: 5828 a33d fe30 48be e2f9 04be c6f1 dabe
00000250: 07d8 bdbe 9949 90be

bias f4 [6]
-0.063656986 0.12369626 -0.1777608 0.17966245 0.10172955 0.24686104
00000000: 985e 82bd 7754 fd3d ed06 36be 6ff9 373e
00000010: 9557 d03d 24c9 7c3e

weight f4 [1, 6, 1, 1]
0.8017017 -1.1249644 1.1400938 0.7474599 1.1958504 1.0595012
00000000: 533c 4d3f d5fe 8fbf 98ee 913f 8859 3f3f
00000010: a011 993f bc9d 873f

bias f4 [1, 6, 1, 1]
-0.023042748 0.14663263 0.017354254 0.023204148 -0.0520332 -0.13119324
00000000: 25c4 bcbc dd26 163e 822a 8e3c a016 be3c
00000010: c420 55bd 8557 06be

weight f4 [10, 6, 5, 5]
0.19483897 0.3551614 0.22067136 0.17606635 -0.20042089 -0.1309914 0.6174187 0.94573
-0.06381661 -0.17437647 -0.17853312 -0.108525366 0.27051997 0.41049936 0.45728675 -0.5665965
-0.37379298 -0.21068698 0.20623335 0.23494771 -0.05574732 0.22760642 0.21850148 0.21560454
0.03091903 -0.13210878 -0.046556566 0.4621868 0.083761394 0.12355258 -0.16379903 -0.15506959
-0.2317251 0.058405243 0.27903295 -0.41018096 -0.0426408 -0.20511337 -0.27103046 0.21593511
-0.21940123 0.22665319 0.015585633 0.1349375 0.30061895 -0.21127291 -0.16188167 0.08274234
0.52057636 0.31624728 0.6913714 0.26161587 0.117917344 0.39150465 0.16705139 0.0450535
-0.03717121 0.16564572 0.16076352 -0.2134093 -0.17610109 -0.1901651 0.13987687 0.30451256
0.21363652 0.15321182 -0.082754746 -0.021094076 0.18359572 0.3827786 0.22476222 0.19000144
0.07988278 0.31666166 0.35174042 -0.228652 0.02323653 -0.25815496 -0.37277016 -0.21761192
-0.1349432 -0.08748836 -0.52874845 -0.41341013 -0.35017273 -0.24553573 -0.06657978 -0.3444626
-0.062221915 0.071263894 -0.38059464 0.025559401 -0.464356 0.012858677 0.1669923 0.06200832
-0.04442536 -0.601657 -0.039723404 0.10727372 -0.13825907 -0.15011038 -0.10458753 0.12967363
0.41127384 0.12985367 0.16874285 0.016470537 -0.21976617 -0.23107263 -0.30333948 -0.20875211
-0.23280075 -0.5123319 -0.37760916 -0.2947993 -0.2915942 -0.4486222 -0.32571462 -0.16276312
-0.14760318 0.040990766 -0.024048768 0.16118483 0.07368349 0.45772386 0.37436685 0.11661736
0.09438904 0.28622583 0.16373646 0.008089119 0.0068908976 -0.08663965 -0.25844038 0.21932359
0.27454337 0.31751367 0.42119667 0.69090873 0.22655739 0.5460024 0.5441575 0.2509963
0.2370729 0.15348037 0.25335974 0.13519011 0.026221242 0.12191754 -0.12140894 -0.0014409381
0.46501094 -0.1591501 -0.74520576 -0.024846587 -0.026644118 -0.30848023 -0.3396986 -0.15033063
-0.24748378 -0.49043515 -0.6787996 -0.33676392 0.4330598 -0.49262533 -0.28994048 0.17075579
-0.09642624 0.20452634 0.050612014 0.05057779 0.16720286 -0.19004798 0.06822618 0.16790113
-0.02628743 0.25676835 0.19649142 0.27091688 -0.012978026 -0.5383768 0.024232835 0.72685343
0.6288407 -0.017952105 -0.5894959 -0.40641558 0.15551268 0.05353292 -0.3002657 -0.2219279
-0.16356108 -0.49684155 -0.6276612 -0.2154545 -0.39448634 0.09085495 -0.16962825 -0.47100228
-0.2238034 0.4016094 0.18363686 0.026729535 0.08252627 -0.35001817 0.0891602 -0.066151835
-0.018257033 0.04319996 -0.51925963 -0.1616749 -0.020135779 -0.2882035 -0.3280419 -0.017656323
0.2588934 0.1783261 0.35636452 -0.46391264 0.1390925 -0.032251947 0.18637154 0.31661314
-0.19221729 -0.2781341 -0.11643384 -0.021876069 0.16681205 -0.015058337 -0.0127785215 -0.015960995
-0.09936776 0.0386736 0.20887458 -0.1741134 -0.009023608 0.10442913 0.35214114 0.3037767
0.07860078 0.05156651 0.33192837 0.0053697117 0.06689235 0.16461599 0.19764763 0.1552564
-0.14700575 -0.20798777 0.03413384 -0.10930503 -0.3038837 0.022233771 -0.08652067 -0.3656078
00000000: de83 473e b7d7 b53e acf7 613e bd4a 343e
00000010: 223b 4dbe 9c22 06be 270f 1e3f 5c1b 723f
00000020: 48b2 82bd bf8f 32be 63d1 36be 8c42 debd
00000030: 9881 8a3e f92c d23e 7d21 ea3e 780c 11bf
00000040: cb61 bfbe 54be 57be d62e 533e 2296 703e
00000050: 4d57 64bd a811 693e dabe 5f3e 70c7 5c3e
00000060: e849 fd3c 8647 07be 19b2 3ebd c0a3 ec3e
00000070: 188b ab3d 2309 fd3d efba 27be 90ca 1ebe
00000080: 5849 6dbe 563a 6f3d 68dd 8e3e 3d03 d2be
00000090: 1fa8 2ebd 3d09 52be 81c4 8abe 181e 5d3e
000000a0: b7aa 60be c617 683e e25a 7f3c 0e2d 0a3e
000000b0: baea 993e ed57 58be 4fc4 25be d174 a93d
000000c0: 7e44 053f 2aeb a13e b7fd 303f 84f2 853e
000000d0: a67e f13d 4c73 c83e 850f 2b3e 058a 383d
000000e0: d740 18bd 089f 293e 319f 243e f887 5abe
000000f0: d853 34be a4ba 42be e23b 0f3e 12e9 9b3e
00000100: 88c3 5a3e 8fe3 1c3e 527b a9bd 7ccd acbc
00000110: 8400 3c3e 8ffb c33e 1128 663e bd8f 423e
00000120: 9599 a33d 7a21 a23e 5217 b43e c023 6abe
00000130: 895a be3c e32c 84be bbdb bebe a9d5 5ebe
00000140: 8d2e 0abe 192d b3bd 0f5c 07bf 7eaa d3be
00000150: d749 b3be b86d 7bbe fb5a 88bd 675d b0be
00000160: 68dc 7ebd cef2 913d 4ddd c2be f361 d13c
00000170: 12c0 edbe 33ad 523c 0800 2b3e 70fc 7d3d
00000180: 5ef7 35bd 3106 1abf 02b5 22bd 53b2 db3d
00000190: c993 0dbe 89b6 19be fd31 d6bd 2ac9 043e
000001a0: 7c92 d23e 5cf8 043e edca 2c3e 38ed 863c
000001b0: 620a 61be 4e9e 6cbe 504f 9bbe 1dc3 55be
000001c0: 5263 6ebe 2f28 03bf fd55 c1be efef 96be
000001d0: d64b 95be cfb1 e5be 11c4 a6be 60ab 26be
000001e0: 4a25 17be efe5 273d ec01 c5bc a30d 253e
000001f0: 5fe7 963d c85a ea3e 03ad bf3e 15d5 ee3d
00000200: 0a4f c13d 318c 923e 88aa 273e 3988 043c
00000210: 0acd e13b 2170 b1bd 4c52 84be 5d96 603e
00000220: f390 8c3e 2791 a23e 17a7 d73e 65df 303f
00000230: a9fe 673e d0c6 0b3f e84d 0b3f 9682 803e
00000240: 3dc3 723e f529 1d3e 5eb8 813e 476f 0a3e
00000250: eecd d63c e7af f93d 40a5 f8bd dcdd bcba
00000260: ea15 ee3e 3ef8 22be cec5 3ebf 128b cbbc
00000270: c444 dabc 1ff1 9dbe faec adbe 46f0 19be
00000280: 636c 7dbe 511a fbbe d0c5 2dbf 526c acbe
00000290: 04ba dd3e 6339 fcbe 1473 94be 9bda 2e3e
000002a0: 1f7b c5bd 5a6f 513e 8b4e 4f3d a82a 4f3d
000002b0: 3a37 2b3e f09b 42be 2bba 8b3d 46ee 2b3e
000002c0: bd58 d7bc 2477 833e 0c35 493e 9eb5 8a3e
000002d0: c9a1 54bc 10d3 09bf f083 c63c 1113 3a3f
000002e0: b4fb 203f 4b10 93bc 34e9 16bf b415 d0be
000002f0: b73e 1f3e 5645 5b3d 6dbc 99be 1141 63be
00000300: 8e7c 27be 0462 febe 68ae 20bf 1ba0 5cbe
00000310: 1dfa c9be 2912 ba3d 07b3 2dbe 3627 f1be
00000320: b82c 65be bf9f cd3e 4d0b 3c3e e6f7 da3c
00000330: 8803 a93d 9535 b3be 9f99 b63d 9d7a 87bd
00000340: c68f 95bc 71f2 303d 33ee 04bf 1b8e 25be
00000350: caf3 a4bc 698f 93be 1cf5 a7be fea3 90bc
00000360: ad8d 843e 1e9b 363e 6975 b63e f585 edbe
00000370: 446e 0e3e 9e1a 04bd 2ed8 3e3e 1e1b a23e
00000380: 9cd4 44be 9867 8ebe dd74 eebd 7135 b3bc
00000390: c7d0 2a3e 3eb7 76bc 015d 51bc a2c0 82bc
000003a0: 5381 cbbd 3568 1e3d 38e3 553e c84a 32be
000003b0: c1d7 13bc f1de d53d d84b b43e 9f88 9b3e
000003c0: 72f9 a03d 6837 533d 84f2 a93e 68f4 af3b
000003d0: dbfe 883d 1891 283e 2464 4a3e 89fb 1e3e
000003e0: ad88 16be bffa 54be edcf 0b3d 51db dfbd
000003f0: a596 9bbe 9923 b63c c031 b1bd f230 bbbe

bias f4 [1, 16, 1, 1]
-0.07659534 -0.08200428 -0.0029918596 -0.19859228 -0.06117989 0.007677893 0.041267127 -0.15084869
0.053926893 0.12578987 -0.34739348 0.10760103 -0.038403735 0.041381497 0.24893089 -0.049594212
00000000: 05de 9cbd dcf1 a7bd 1313 44bb c65b 4bbe
00000010: c497 7abd d696 fb3b b807 293d 1478 1abe
00000020: 72e2 5c3d 0fcf 003e 8fdd b1be ee5d dc3d
00000030: 3c4d 1dbd a57f 293d bde7 7e3e 4d23 4bbd

weight f4 [1, 16, 1, 1]
-1.1868618 -1.1073351 -1.1579412 -1.1795171 -1.4561615 1.7355762 1.2826314 1.454046
-1.1154854 1.3661232 1.0780877 1.2724856 1.1781366 1.292533 -1.3562778 -1.4306712
00000000: 16eb 97bf 28bd 8dbf 6b37 94bf 6bfa 96bf
00000010: 8063 babf 5c27 de3f 442d a43f 2e1e ba3f
00000020: 3ac8 8ebf 20dd ae3f c7fe 893f cfe0 a23f
00000030: 2ecd 963f b971 a53f 839a adbf 3c20 b7bf

bias f4 [1, 16, 1, 1]
-0.09069915 -0.2171582 -0.11771148 0.23238745 -0.19003403 0.006717247 0.05023234 0.07352598
-0.037073337 0.21914561 0.35563335 0.093703866 0.12892158 -0.13608466 0.07799076 -0.29306597
00000000: 7ac0 b9bd b85e 5ebe b712 f1bd faf6 6d3e
00000010: 4898 42be 5a1c dc3b 6dc0 4d3d ca94 963d
00000020: 36da 17bd b567 603e 9315 b63e d0e7 bf3d
00000030: 0504 043e c759 0bbe 9fb9 9f3d be0c 96be

weight f4 [120, 16, 5, 5]
-0.2547648 0.04705751 -0.29940662 -0.069205835 -0.27036723 -0.31380457 -0.020260459 -0.0625955
0.10084231 0.079214655 -0.047321223 -0.15081368 -0.13538623 0.009128712 0.28625402 0.31344783
-0.036457088 0.15564208 0.11192129 0.10368161 -0.07268484 0.5999844 -0.10797459 -0.3626297
-0.012386583 -0.04806562 -0.16585828 0.108204074 0.10875791 -0.17792799 0.11339213 0.19032933
-0.081715986 -0.05065049 -0.038971573 -0.10422042 -0.06022785 -0.18957044 0.2799404 0.03714821
-0.032847445 -0.00976856 0.16853045 -0.087981924 -0.12543103 -0.03365123 0.20531307 -0.5197
-0.0630204 0.18776675 0.085118674 0.4226997 0.14487967 0.25360006 0.28871828 -0.15715419
-0.0828399 0.34777462 0.018794863 -0.3789369 -0.5664844 -0.1459899 -0.102266364 -0.24439451
-0.3379479 -0.14050132 -0.051392782 -0.1757411 -0.078036934 -0.26950347 -0.28602007 -0.08603888
0.09253229 0.36604345 0.5572022 0.20258808 -0.029703954 0.3364078 0.31996456 -0.030575473
0.326468 0.103471294 0.06371638 0.26446292 0.025986038 0.14767696 -0.02453956 -0.011114976
0.66273755 0.35265753 -0.23303269 -0.09511153 -0.18105412 0.23777685 -0.3706855 -0.16375831
0.1431013 0.067900896 -0.08580848 -0.1265483 -0.162284 0.049766928 0.15012842 0.043785483
0.14960283 0.38936427 0.17591707 0.1611084 0.043402806 0.037309006 0.20381428 -0.10993128
-0.008277354 0.056869384 0.17803492 -0.42403167 -0.28574282 0.043404754 -0.20959221 -0.17414571
0.2018331 -0.12324437 -0.12026992 -0.31572387 -0.26131454 0.105974056 -0.11379767 -0.3518089
-0.17917307 -0.11974363 0.22176486 -0.35264438 -0.031808246 -0.3619674 -0.22766285 -0.41265503
0.24076986 0.117937125 -0.0025713386 0.20135807 -0.032022446 0.0478159 -0.16299033 -0.071033336
0.09227676 -0.08988323 -0.22321999 -0.5675681 -0.477232 0.12893268 -0.2092082 -0.3578869
0.037846792 0.06761052 0.13235058 0.2091688 -0.028577052 -0.28623894 -0.008579741 0.07175659
-0.07891493 0.18607202 -0.024682477 0.13379972 0.035389353 0.035451043 0.29893845 0.1295739
0.5206993 0.08029424 -0.10324511 -0.14572696 0.054187078 0.10283646 0.09080381 0.08395395
0.10662224 0.052009817 0.05397926 0.2130484 0.47113746 -0.35439196 -0.13484623 -0.3184181
-0.35674062 -0.022563677 -0.20716134 -0.29686522 -0.114356056 -0.053323742 0.11070774 -0.0045874626
-0.1798701 -0.12938909 0.27051046 0.10743214 -0.39228296 -0.28420314 -0.11880906 0.058613203
0.27225718 0.097533874 -0.11455927 -0.1285269 -0.20300414 0.27931887 0.012031781 -0.012916322
-0.17715847 -0.100664586 0.25496176 -0.07933109 -0.22792163 -0.5000534 -0.07389576 0.08632422
0.15842152 0.22290464 0.4988343 0.24070571 -0.067845255 -0.11804117 -0.08391298 -0.100086994
0.09642437 -0.08641486 0.014379016 -0.15128917 -0.14222851 -0.09183479 -0.21905458 -0.22837165
-0.069471344 0.02532981 0.05490401 -0.24892297 0.111511774 0.032365732 -0.26541546 0.17875504
-0.08249298 -0.03306601 0.15595792 -0.016012123 -0.4124907 -0.23818097 0.08020501 0.07810511
-0.039978866 -0.073136024 -0.1693241 -0.23334382 -0.54504925 -0.19128564 -0.1645456 -0.24362648
00000000: 8870 82be 60bf 403d d34b 99be cabb 8dbd
00000010: 936d 8abe feaa a0be 43f9 a5bc 1232 80bd
00000020: 6a86 ce3d 4b3b a23d e6d3 41bd e76e 1abe
00000030: b0a2 0abe 9890 153c e38f 923e 3c7c a03e
00000040: 0754 15bd a360 1f3e fd36 e53d 0657 d43d
00000050: cadb 94bd 9498 193f c821 ddbd 9aaa b9be
00000060: 18f1 4abc 75e0 44bd c1d6 29be 199a dd3d
00000070: 78bc de3d c132 36be 223a e83d b1e5 423e
00000080: b65a a7bd e376 4fbd a8a0 1fbd 8471 d5bd
00000090: 7ab1 76bd c11e 42be 5954 8f3e b928 183d
000000a0: 0b8b 06bd 4f0c 20bc 3f93 2c3e de2f b4bd
000000b0: fe70 00be dfd5 09bd 973d 523e 0f0b 05bf
000000c0: d710 81bd ed45 403e b352 ae3d 186c d83e
000000d0: 565b 143e ded7 813e e2d2 933e 07ed 20be
000000e0: f7a7 a9bd 840f b23e aff7 993c 0404 c2be
000000f0: 1f05 11bf 607e 15be 0771 d1bd 8e42 7abe
00000100: 8207 adbe 94df 0fbe 3d81 52bd 7af5 33be
00000110: d4d1 9fbd 5cfc 89be 3971 92be 2735 b0bd
00000120: 9281 bd3d 0c6a bb3e cea4 0e3f 4073 4f3e
00000130: b555 f3bc a53d ac3e 65d2 a33e 6a79 fabc
00000140: d026 a73e c2e8 d33d bc7d 823d af67 873e
00000150: ace0 d43c a138 173e 3007 c9bc 971b 36bc
00000160: 2ba9 293f 878f b43e 1fa0 6ebe d5c9 c2bd
00000170: 4066 39be c67b 733e 7dca bdbe 42b0 27be
00000180: 2689 123e a00f 8b3d 5bbc afbd e195 01be
00000190: c72d 26be 68d8 4b3d 44bb 193e 6858 333d
000001a0: 7c31 193e c15a c73e 9b23 343e 9af9 243e
000001b0: 24c7 313d 54d1 183d b1b4 503e a723 e1bd
000001c0: bd9d 07bc dfef 683d c94e 363e ae1a d9be
000001d0: e24c 92be 2fc9 313d 579f 56be 4153 32be
000001e0: 56ad 4e3e 8b67 fcbd 1350 f6bd 8fa6 a1be
000001f0: 05cb 85be ed08 d93d c10e e9bd 4c20 b4be
00000200: 2579 37be 263c f5bd 5416 633e ce8d b4be
00000210: 5d49 02bd cb53 b9be 7320 69be 8547 d3be
00000220: 608c 763e 0589 f13d e783 28bb cf30 4e3e
00000230: f829 03bd 9bda 433d f0e6 26be ed79 91bd
00000240: 99fb bc3d b314 b8bd c893 64be 254c 11bf
00000250: c157 f4be ee06 043e ad3a 56be f43c b7be
00000260: 3d05 1b3d 6277 8a3d e986 073e 5930 563e
00000270: 6c1a eabc e98d 92be 0b92 0cbc 1ef5 923d
00000280: 279e a1bd aa89 3e3e e832 cabc cb02 093e
00000290: 6df4 103d 1d35 113d 760e 993e 05af 043e
000002a0: 8d4c 053f 4e71 a43d 2c72 d3bd 7339 15be
000002b0: 45f3 5d3d ec9b d23d 59f7 b93d 0cf0 ab3d
000002c0: c35c da3d 3f08 553d 5b19 5d3d 5c29 5a3e
000002d0: ee38 f13e dd72 b5be 2115 0abe b207 a3be
000002e0: b5a6 b6be 76d7 b8bc 1a22 54be b8fe 97be
000002f0: 8233 eabd ff69 5abd bdba e23d 6d52 96bb
00000300: de2f 38be 937e 04be 5980 8a3e 6205 dc3d
00000310: 50d9 c8be 1383 91be 2a52 f3bd 6614 703d
00000320: 4b65 8b3e d7bf c73d 0d9e eabd 8e9c 03be
00000330: 51e0 4fbe e202 8f3e f220 453c fb9e 53bc
00000340: 0869 35be 3c29 cebd 598a 823e 5778 a2bd
00000350: 4a64 69be 8003 00bf a956 97bd c1ca b03d
00000360: 4039 223e 1d41 643e 3667 ff3e 8f7b 763e
00000370: 74f2 8abd 92bf f1bd 92da abbd 69fa ccbd
00000380: 247a c53d 46fa b0bd f795 6b3c 8ceb 1abe
00000390: 5aa4 11be e113 bcbd d84f 60be 42da 69be
000003a0: fe46 8ebd 7680 cf3c 07e3 603d aae5 7ebe
000003b0: 4960 e43d ee91 043d 89e4 87be 900b 373e
000003c0: 14f2 a8bd 3970 07bd 6fb3 1f3e db2b 83bc
000003d0: fb31 d3be b6e5 73be 8642 a43d 92f5 9f3d
000003e0: e1c0 23bd 57c8 95bd 4c63 2dbe aff1 6ebe
000003f0: 5988 0bbf 62e0 43be a47e 28be 3879 79be

bias f4 [120]
-0.14890687 -0.015434176 0.027396386 0.20748074 0.034779638 0.26426914 0.0056796963 -0.034412596
-0.019437112 0.03493573 -0.00988542 -0.21182959 0.049493875 0.04556211 0.02106082 0.0038463534
0.018524263 0.14849792 -0.06254692 -0.14174439 0.07350616 -0.0020610106 -0.14860973 0.0945925
0.1620011 0.08304131 -0.036710843 0.122447975 0.11361994 0.08730758 -0.014713131 -0.12286908
0.04207665 0.06942826 0.0037617881 -0.026358068 0.042924352 0.042944137 -0.058010664 -0.028446706
0.09419121 0.09666217 0.0135352705 0.010001713 -0.0013422213 0.027813122 0.031037545 -0.061053403
0.03122357 -0.016140057 0.019531187 0.021699032 0.03257942 0.038626913 -0.018156437 -0.06449023
-0.0009367119 -0.05904837 0.032349203 -0.5287895 -0.090413444 -0.023389217 -0.094632395 -0.073171765
-0.25983274 -0.09928122 0.009404741 0.093281284 -0.0306761 0.06531905 -0.03412487 -0.003422336
0.26604372 -0.0060127 0.11152615 0.004704019 0.2712569 0.07207983 0.135938 0.026768275
-0.07101064 -0.030995943 -0.29368556 -0.0005438424 -0.02112303 0.036612753 0.032000273 0.038315203
0.011279888 0.10024417 0.027801313 0.026528798 -0.13278347 -0.00460701 -0.06989196 0.09252211
0.01810651 -0.3361869 -0.022762656 0.023438003 0.010567063 0.07610807 -0.01968133 -0.0006264413
0.0719733 -0.014165426 0.14204283 -0.08458807 0.040259562 0.015829287 0.105857946 0.053486127
-0.0008437206 -0.20182224 -0.062724054 0.047462866 -0.08428574 -0.04840806 -0.060265325 0.045984097
00000000: 0b7b 18be a0df 7cbc 636e e03c d575 543e
00000010: 1875 0e3d 494e 873e bf1c ba3b 39f4 0cbd
00000020: 943a 9fbc c518 0f3d 75f6 21bc dbe9 58be
00000030: 17ba 4a3d 569f 3a3d be87 ac3c 1a13 7c3b
00000040: 32c0 973c d70f 183e 9918 80bd 7125 11be
00000050: 668a 963d 0512 07bb 262d 18be b6b9 c13d
00000060: 9ee3 253e 9011 aa3d 1c5e 16bd 01c6 fa3d
00000070: 92b1 e83d 51ce b23d 580f 71bc c9a2 fbbd
00000080: 9158 2c3d 6730 8e3d 5588 763b e0ec d7bc
00000090: 72d1 2f3d 31e6 2f3d 979c 6dbd 1109 e9bc
000000a0: 52e7 c03d d1f6 c53d 0ac3 5d3c 3ade 233c
000000b0: 79ed afba 58d8 e33c 7342 fe3c 2213 7abd
000000c0: 93c8 ff3c 2738 84bc deff 9f3c 2bc2 b13c
000000d0: ff71 053d 4137 1e3d cfbc 94bc 7413 84bd
000000e0: ac8d 75ba b4dc 71bd 9980 043d c05e 07bf
000000f0: af2a b9bd be9a bfbc a1ce c1bd 14db 95bd
00000100: cc08 85be f453 cbbd 5816 1a3c 420a bf3d
00000110: 724c fbbc fec5 853d 85c6 0bbd 4549 60bb
00000120: e236 883e 2f06 c5bb d267 e43d 2c24 9a3b
00000130: 2fe2 8a3e 979e 933d 5533 0b3e 2449 db3c
00000140: 076e 91bd 34eb fdbc f45d 96be a590 0eba
00000150: 340a adbc 41f7 153d b812 033d 67f0 1c3d
00000160: 48cf 383c d14c cd3d 94bf e33c ec52 d93c
00000170: 64f8 07be 67f6 96bb 8423 8fbd 3b7c bd3d
00000180: 1b54 943c b020 acbe c078 babc 0e01 c03c
00000190: 7921 2d3c 8cde 9b3d be3a a1bc c437 24ba
000001a0: bd66 933d 1a16 68bc ad73 113e 833c adbd
000001b0: 36e7 243d 6cac 813c 0dcc d83d 4514 5b3d
000001c0: 222d 5dba 7daa 4ebe 7875 80bd 6c68 423d
000001d0: 019e acbd 8847 46bd c6d8 76bd d259 3c3d

weight f4 [84, 120]
8.888511e-06 2.0506159e-06 1.6029962e-05 0.00043070843 -7.845326e-06 -0.00023569181 5.143127e-06 -7.686991e-06
1.6272896e-05 -4.81239e-06 -1.3225025e-06 6.1011137e-06 2.496044e-06 5.60625e-06 -2.7529823e-06 -2.7334681e-06
-5.8520493e-07 0.00027730878 -1.1985922e-05 3.0115866e-06 1.4105865e-06 -3.9032648e-06 -8.665589e-06 1.8721368e-05
4.6477035e-06 -2.9787743e-06 -1.3966812e-05 2.6390893e-05 3.1329278e-06 -0.00033423648 1.6009282e-05 -1.809664e-05
-1.36270655e-05 3.77417e-08 6.0910616e-06 2.6310767e-07 1.5827281e-05 -5.105687e-06 -1.9422389e-05 -6.500852e-06
0.00010125322 9.250996e-06 3.8569497e-06 -4.2622924e-06 -4.2944425e-06 -6.1416126e-06 -4.278061e-06 5.7481907e-07
1.4896297e-06 -5.7641423e-06 5.4340717e-06 2.901996e-06 9.920382e-08 -1.1516933e-06 -2.2825063e-06 -1.1055326e-06
-3.6319602e-07 3.6324047e-06 1.2243529e-06 -1.5084531e-05 -1.0592177e-05 3.5819462e-06 -1.0237239e-05 4.5701523e-05
-1.5748526e-05 -7.7071545e-06 3.5218352e-06 0.00011333626 7.2244416e-06 8.909052e-06 5.828962e-06 1.1560093e-05
-0.000115672214 -1.8874746e-06 -3.6094755e-06 1.2090954e-06 -0.00028333793 4.0180053e-06 1.0326452e-05 -1.6984549e-06
-1.2507163e-05 -1.0850924e-06 -1.2177643e-05 -1.7899599e-06 -2.6948403e-05 2.3554155e-06 3.8102575e-05 -2.385119e-06
7.1970017e-06 3.964621e-06 -2.4247714e-07 -2.8639577e-06 0.00012375524 -2.2574477e-06 -0.00023006619 2.6977212e-05
-2.7824158e-06 -1.692402e-05 6.8121954e-06 7.644894e-06 4.593355e-06 6.3919633e-06 3.8889134e-06 -4.2637007e-06
1.0511715e-05 -3.0567107e-06 9.609035e-06 7.273853e-06 -7.787586e-06 6.71825e-06 -3.7064037e-06 -5.137828e-06
3.360148e-07 -0.00012053069 -1.8889955e-06 3.929091e-06 -4.5976244e-06 2.620268e-06 1.1667762e-06 -1.9042951e-06
4.940764e-06 -3.1301993e-06 6.866315e-07 -0.00030852412 -7.41216e-07 7.654639e-05 -1.3050881e-06 7.289094e-07
4.454605e-06 -2.5765212e-06 -1.0696587e-06 -1.681204e-06 -1.8803375e-06 -1.3400304e-06 -1.2846892e-06 1.6912369e-06
-1.778764e-06 -3.0195177e-05 1.8426189e-06 -1.3002074e-05 1.8087295e-06 2.793914e-06 3.363766e-08 1.03561e-05
4.049446e-06 7.1632826e-07 5.2665e-06 2.2233428e-06 -1.3449006e-06 -5.5368687e-06 -6.938956e-06 -4.625913e-06
4.4388985e-06 -3.163691e-07 -1.2221767e-06 -1.5999592e-06 -2.4336407e-06 1.115215e-06 1.5402569e-06 -1.4637085e-06
9.192791e-06 6.389796e-07 -1.6503609e-06 3.4171974e-06 1.4940545e-06 -1.1214518e-06 2.2977563e-06 -6.7382393e-06
5.5359016e-07 -4.0556247e-06 7.5412004e-07 -2.9249154e-06 4.5342165e-07 -2.3755092e-06 7.5766485e-07 -3.854358e-06
-1.978154e-06 -8.877186e-07 -1.3747317e-06 -1.6461305e-05 -3.3655745e-06 1.3047193e-06 -3.7869665e-06 -1.5252167e-05
-1.4262552e-05 1.8739757e-06 3.1568388e-06 -5.6599347e-06 -3.6605688e-06 6.7617193e-06 1.2202141e-06 -1.4835072e-06
1.6872555e-05 -6.486917e-07 5.847277e-06 1.4399063e-07 -2.8496934e-05 6.6800607e-07 2.344174e-06 -8.820675e-08
-4.8681795e-06 1.7925217e-06 -1.4988031e-05 8.711606e-07 -1.5766285e-05 6.2469064e-07 -1.4795893e-07 -4.0533923e-06
-1.6146362e-06 3.6512706e-06 1.4515291e-07 3.2499647e-06 -1.1801668e-05 1.1401819e-06 -3.320934e-06 8.772157e-06
-1.0102767e-06 -1.1555741e-05 3.4188528e-07 1.5147947e-06 2.5124073e-06 -4.5918924e-07 9.902276e-07 3.0599367e-06
1.581927e-07 -2.763252e-06 2.2840993e-06 -2.9648309e-06 -2.0095342e-06 2.4718977e-06 -1.539637e-07 1.5018604e-06
1.5203127e-06 -5.1389732e-05 1.1484419e-06 -1.0863153e-06 -1.458602e-06 1.1901793e-06 -2.5456459e-06 9.555324e-07
-3.577567e-05 2.609565e-06 -9.314832e-06 -0.00027314087 1.1557489e-05 0.00019940027 -1.6591871e-06 1.4477438e-05
-3.33194e-05 6.2402037e-06 -1.8399224e-06 -6.9721746e-06 1.9650206e-06 1.0566109e-06 1.0714988e-06 -3.059155e-07
00000000: dd1f 1537 509d 0936 1578 8637 b5d0 e139
00000010: 6b9f 03b7 0a24 77b9 2093 ac36 60f7 00b7
00000020: c781 8837 1e7a a1b6 d780 b1b5 2bb8 cc36
00000030: b681 2736 521d bc36 e0bf 38b6 a070 37b6
00000040: fa16 1db5 c163 9139 2517 49b7 aa1a 4a36
00000050: 6253 bd35 caf8 82b6 6c62 11b7 d50b 9d37
00000060: 78f3 9b36 f4e6 47b6 0053 6ab7 0362 dd37
00000070: 4a3f 5236 763c afb9 ac4b 8637 3dce 97b7
00000080: cd9f 64b7 7019 2233 d261 cc36 3e41 8d34
00000090: d4c4 8437 8451 abb6 43ed a2b7 e521 dab6
000000a0: e957 d438 ba34 1b37 f26a 8136 d004 8fb6
000000b0: fb18 90b6 0d14 ceb6 448c 8fb6 444d 1a35
000000c0: 49ef c735 9b69 c1b6 5256 b636 e9bf 4236
000000d0: e009 d533 e193 9ab5 292d 19b6 d061 94b5
000000e0: 48fd c2b4 3dc4 7336 7254 a435 9113 7db7
000000f0: 0eb5 31b7 5e61 7036 9bc0 2bb7 a3af 3f38
00000100: b41b 84b7 fa4d 01b7 ab58 6c36 f1ae ed38
00000110: 7b69 f236 1678 1537 6796 c336 39f2 4137
00000120: 0c95 f2b8 2255 fdb5 513a 72b6 3448 a235
00000130: f98c 94b9 67d2 8636 c63f 2d37 77f6 e3b5
00000140: dbd5 51b7 7ea3 91b5 944e 4cb7 8e3e f0b5
00000150: 410f e2b7 bb11 1e36 54d0 1f38 0810 20b6
00000160: c67d f136 d607 8536 ce2d 82b4 6b32 40b6
00000170: 4bc4 0139 a87e 17b6 ec3d 71b9 1f4d e237
00000180: 8ab9 3ab6 0ef8 8db7 5094 e436 9242 0037
00000190: 9e20 9a36 8c7a d636 837d 8236 e910 8fb6
000001a0: 795b 3037 e421 4db6 7e36 2137 ec11 f436
000001b0: 6da7 02b7 546d e136 88bb 78b6 9b65 acb6
000001c0: 8665 b434 6cc5 fcb8 6489 fdb5 a2d6 8336
000001d0: 4b45 9ab6 ddd7 2f36 209a 9c35 1597 ffb5
000001e0: d7c8 a536 6a10 52b6 f550 3835 68c1 a1b9
000001f0: faf7 46b5 8887 a038 7c2a afb5 46aa 4335
00000200: c478 9536 4ce8 2cb6 3191 8fb5 bba5 e1b5
00000210: e85f fcb5 18db b3b5 966d acb5 75fe e235
00000220: debd eeb5 a64b fdb7 e74f f735 7c23 5ab7
00000230: 79c3 f235 147f 3b36 0079 1033 1cbf 2d37
00000240: 7ae0 8736 b449 4035 e4b6 b036 bd34 1536
00000250: 6f82 b4b5 57c9 b9b6 2ed5 e8b6 4a38 9bb6
00000260: d9f1 9436 70d9 a9b4 ac09 a4b5 2ebe d6b5
00000270: a151 23b6 7fae 9535 d3ba ce35 a474 c4b5
00000280: bd3a 1a37 5886 2b35 f881 ddb5 0153 6536
00000290: 5287 c835 ca84 96b5 2733 1a36 0919 e2b6
000002a0: 6d9a 1435 8d15 88b6 bc6e 4a35 aa49 44b6
000002b0: cc6d f334 f06a 1fb6 5562 4b35 af54 81b6
000002c0: 6dc0 04b6 8f4b 6eb5 6c83 b8b5 6216 8ab7
000002d0: 21dc 61b6 d01d af35 9723 7eb6 8fe3 7fb7
000002e0: 3249 6fb7 5185 fb35 14da 5336 78ea bdb6
000002f0: 18a8 75b6 bae2 e236 3dc6 a335 eb1c c7b5
00000300: 8989 8d37 c121 2eb5 ba33 c436 d89b 1a34
00000310: b30c efb7 0751 3335 9a50 1d36 2c6c bdb3
00000320: 5859 a3b6 9496 f035 1a75 7bb7 b3d9 6935
00000330: d741 84b7 6ab0 2735 a4de 1eb4 6002 88b6
00000340: 7ab6 d8b5 5a08 7536 54db 1b34 f819 5a36
00000350: c7ff 45b7 5a08 9935 36dd 5eb6 212c 1337
00000360: d898 87b5 88df 41b7 5b8c b734 f34f cb35
00000370: d49a 2836 7d86 f6b4 f6e7 8435 5059 4d36
00000380: aedb 2934 4f70 39b6 8748 1936 68f7 46b6
00000390: 89db 06b6 e1e2 2536 3851 25b4 8893 c935
000003a0: 8c0d cc35 4e8b 57b8 2a24 9a35 82cd 91b5
000003b0: 2fc5 c3b5 40be 9f35 ddd5 2ab6 d83f 8035
000003c0: d50d 16b8 fc1f 2f36 e646 1cb7 5934 8fb9
000003d0: 0ae7 4137 1a16 5139 3cb1 deb5 1fe4 7237
000003e0: 6fc0 0bb8 f162 d136 41f3 f6b5 86f2 e9b6
000003f0: ccde 0336 e0d0 8d35 6bd0 8f35 b53c a4b4

bias f4 [84]
-0.00048368337 0.0001397067 0.00035928306 0.00024096596 -7.488319e-05 -0.00052627566 0.00012716213 8.235164e-05
-0.009923642 0.0584952 0.6211102 0.2526183 0.0023652187 -0.00052054535 0.0005697967 0.27569863
0.09361101 0.384017 0.07794989 0.17565723 0.001231528 0.12764162 0.117358185 -0.0007825111
0.5851907 0.15973215 0.10216608 -0.00059495604 0.122456945 0.07033948 -0.00032035066 0.55439925
0.13094668 0.07253791 0.00050445786 0.16098234 0.2766549 -0.077312656 0.34243304 0.007114593
0.1549327 -7.587715e-05 0.14388822 0.21065141 0.0004328574 0.55133 0.17983669 0.06802431
-0.0005537461 0.11486421 0.2524634 0.18950476 0.6204285 0.16449884 0.16100207 0.17216468
0.00015990753 0.17694646 -0.0886582 0.578938 0.1750965 0.11067971 -0.00048522218 -0.00037020652
0.32047182 0.17501582 0.42115483 0.098432824 0.20704897 0.0010206512 2.2254808e-06 -0.089866266
0.135923 0.064882144 0.09616021 -0.09102722 -0.00023151444 6.315719e-05 -0.0003128684 8.447883e-05
0.00020259414 -0.00043566234 -0.00059129513 -0.00035350435
00000000: e296 fdb9 3b7e 1239 285e bc39 cfab 7c39
00000010: 9b0a 9db8 c3f5 09ba d356 0539 33b4 ac38
00000020: c596 22bc aa98 6f3d 1401 1f3f 3057 813e
00000030: c901 1b3b 3575 08ba 695e 153a 5f28 8d3e
00000040: 21b7 bf3d e09d c43e 31a4 9f3d 7ddf 333e
00000050: 396b a13a 7cb4 023e 7d59 f03d 6e21 4dba
00000060: 0fcf 153f d390 233e 733c d13d d3f6 1bba
00000070: b5ca fa3d 250e 903d bdf4 a7b9 1ced 0d3f
00000080: e316 063e c18e 943d 983d 043a 8ed8 243e
00000090: b6a5 8d3e 1956 9ebd 6253 af3e 8821 e93b
000000a0: ada6 1e3e 3c20 9fb8 6f57 133e 01b5 573e
000000b0: 23f1 e239 f623 0d3f 1c27 383e 5450 8b3d
000000c0: 4629 11ba ed3d eb3d e242 813e 890d 423e
000000d0: 67d4 1e3f 6272 283e badd 243e f04b 303e
000000e0: daac 2739 7431 353e 6e92 b5bd 4835 143f
000000f0: 7f4c 333e 0bac e23d 6b65 feb9 4718 c2b9
00000100: e214 a43e 5937 333e 9ba1 d73e 2697 c93d
00000110: a504 543e 5fc7 853a 7859 1536 ce0b b8bd
00000120: 662f 0b3e eee0 843d a5ef c43d 7b6c babd
00000130: afc2 72b9 4273 8438 7c08 a4b9 3a2a b138
00000140: 736f 5439 9c69 e4b9 2501 1bba 8d56 b9b9

kernel f4 [10, 84]
0.0 0.0 0.0 0.0 0.0 0.0 0.0 0.0
0.0 0.0 0.0 0.0 0.0 0.0 0.0 0.0
1.0 1.0 1.0 0.0 0.0 0.0 1.0 0.0
0.0 0.0 1.0 0.0 0.0 1.0 0.0 0.0
0.0 1.0 0.0 0.0 1.0 0.0 0.0 0.0
1.0 0.0 0.0 1.0 0.0 0.0 0.0 1.0
0.0 0.0 1.0 0.0 0.0 0.0 1.0 0.0
0.0 1.0 0.0 0.0 0.0 1.0 0.0 0.0
1.0 0.0 0.0 0.0 1.0 0.0 0.0 0.0
1.0 1.0 1.0 0.0 0.0 0.0 0.0 0.0
0.0 0.0 0.0 0.0 0.0 0.0 0.0 0.0
0.0 0.0 0.0 0.0 0.0 0.0 1.0 0.0
0.0 0.0 0.0 0.0 0.0 1.0 0.0 0.0
0.0 0.0 0.0 0.0 1.0 0.0 0.0 0.0
0.0 0.0 0.0 1.0 0.0 0.0 0.0 0.0
0.0 0.0 1.0 0.0 0.0 0.0 0.0 0.0
0.0 1.0 0.0 0.0 0.0 0.0 0.0 0.0
1.0 0.0 0.0 0.0 0.0 0.0 0.0 1.0
0.0 0.0 0.0 0.0 0.0 0.0 1.0 0.0
0.0 0.0 0.0 0.0 0.0 0.0 0.0 0.0
0.0 0.0 0.0 0.0 0.0 0.0 0.0 0.0
0.0 0.0 0.0 0.0 0.0 0.0 0.0 0.0
0.0 0.0 0.0 0.0 0.0 0.0 0.0 0.0
1.0 1.0 1.0 0.0 0.0 0.0 1.0 0.0
0.0 0.0 1.0 0.0 0.0 0.0 0.0 0.0
0.0 1.0 0.0 0.0 0.0 0.0 0.0 1.0
0.0 0.0 0.0 0.0 0.0 0.0 1.0 0.0
0.0 0.0 0.0 0.0 1.0 0.0 0.0 0.0
0.0 0.0 1.0 0.0 0.0 0.0 0.0 0.0
1.0 0.0 0.0 0.0 0.0 0.0 0.0 1.0
1.0 1.0 1.0 1.0 0.0 0.0 0.0 0.0
0.0 0.0 0.0 0.0 0.0 0.0 0.0 0.0
00000000: 0000 0000 0000 0000 0000 0000 0000 0000
00000010: 0000 0000 0000 0000 0000 0000 0000 0000
00000020: 0000 0000 0000 0000 0000 0000 0000 0000
00000030: 0000 0000 0000 0000 0000 0000 0000 0000
00000040: 0000 803f 0000 803f 0000 803f 0000 0000
00000050: 0000 0000 0000 0000 0000 803f 0000 0000
00000060: 0000 0000 0000 0000 0000 803f 0000 0000
00000070: 0000 0000 0000 803f 0000 0000 0000 0000
00000080: 0000 0000 0000 803f 0000 0000 0000 0000
00000090: 0000 803f 0000 0000 0000 0000 0000 0000
000000a0: 0000 803f 0000 0000 0000 0000 0000 803f
000000b0: 0000 0000 0000 0000 0000 0000 0000 803f
000000c0: 0000 0000 0000 0000 0000 803f 0000 0000
000000d0: 0000 0000 0000 0000 0000 803f 0000 0000
000000e0: 0000 0000 0000 803f 0000 0000 0000 0000
000000f0: 0000 0000 0000 803f 0000 0000 0000 0000
00000100: 0000 803f 0000 0000 0000 0000 0000 0000
00000110: 0000 803f 0000 0000 0000 0000 0000 0000
00000120: 0000 803f 0000 803f 0000 803f 0000 0000
00000130: 0000 0000 0000 0000 0000 0000 0000 0000
00000140: 0000 0000 0000 0000 0000 0000 0000 0000
00000150: 0000 0000 0000 0000 0000 0000 0000 0000
00000160: 0000 0000 0000 0000 0000 0000 0000 0000
00000170: 0000 0000 0000 0000 0000 803f 0000 0000
00000180: 0000 0000 0000 0000 0000 0000 0000 0000
00000190: 0000 0000 0000 803f 0000 0000 0000 0000
000001a0: 0000 0000 0000 0000 0000 0000 0000 0000
000001b0: 0000 803f 0000 0000 0000 0000 0000 0000
000001c0: 0000 0000 0000 0000 0000 0000 0000 803f
000001d0: 0000 0000 0000 0000 0000 0000 0000 0000
000001e0: 0000 0000 0000 0000 0000 803f 0000 0000
000001f0: 0000 0000 0000 0000 0000 0000 0000 0000
00000200: 0000 0000 0000 803f 0000 0000 0000 0000
00000210: 0000 0000 0000 0000 0000 0000 0000 0000
00000220: 0000 803f 0000 0000 0000 0000 0000 0000
00000230: 0000 0000 0000 0000 0000 0000 0000 803f
00000240: 0000 0000 0000 0000 0000 0000 0000 0000
00000250: 0000 0000 0000 0000 0000 803f 0000 0000
00000260: 0000 0000 0000 0000 0000 0000 0000 0000
00000270: 0000 0000 0000 0000 0000 0000 0000 0000
00000280: 0000 0000 0000 0000 0000 0000 0000 0000
00000290: 0000 0000 0000 0000 0000 0000 0000 0000
000002a0: 0000 0000 0000 0000 0000 0000 0000 0000
000002b0: 0000 0000 0000 0000 0000 0000 0000 0000
000002c0: 0000 0000 0000 0000 0000 0000 0000 0000
000002d0: 0000 0000 0000 0000 0000 0000 0000 0000
000002e0: 0000 803f 0000 803f 0000 803f 0000 0000
000002f0: 0000 0000 0000 0000 0000 803f 0000 0000
00000300: 0000 0000 0000 0000 0000 803f 0000 0000
00000310: 0000 0000 0000 0000 0000 0000 0000 0000
00000320: 0000 0000 0000 803f 0000 0000 0000 0000
00000330: 0000 0000 0000 0000 0000 0000 0000 803f
00000340: 0000 0000 0000 0000 0000 0000 0000 0000
00000350: 0000 0000 0000 0000 0000 803f 0000 0000
00000360: 0000 0000 0000 0000 0000 0000 0000 0000
00000370: 0000 803f 0000 0000 0000 0000 0000 0000
00000380: 0000 0000 0000 0000 0000 803f 0000 0000
00000390: 0000 0000 0000 0000 0000 0000 0000 0000
000003a0: 0000 803f 0000 0000 0000 0000 0000 0000
000003b0: 0000 0000 0000 0000 0000 0000 0000 803f
000003c0: 0000 803f 0000 803f 0000 803f 0000 803f
000003d0: 0000 0000 0000 0000 0000 0000 0000 0000
000003e0: 0000 0000 0000 0000 0000 0000 0000 0000
000003f0: 0000 0000 0000 0000 0000 0000 0000 0000
